Parameters:
EPOCHS: 10
Learning Rate: .15

Model: "sequential"
_________________________________________________________________
 Layer (type)                Output Shape              Param #
=================================================================
 flatten (Flatten)           (None, 784)               0

 dense (Dense)               (None, 100)               78500

 dense_1 (Dense)             (None, 100)               10100

 dense_2 (Dense)             (None, 50)                5050

 dense_3 (Dense)             (None, 50)                2550

 dense_4 (Dense)             (None, 10)                510

 dense_5 (Dense)             (None, 10)                110

=================================================================
Total params: 96,820
Trainable params: 96,820
Non-trainable params: 0
_________________________________________________________________
None
2022-08-12 17:36:48.634885: W tensorflow/core/platform/profile_utils/cpu_utils.cc:128] Failed to get CPU frequency: 0 Hz
Epoch 1/10
 1/79 [..............................] - ETA: 17s - loss: 2
…
