Model: "sequential"
_________________________________________________________________
 Layer (type)                Output Shape              Param #
=================================================================
 flatten (Flatten)           (None, 784)               0

 dense (Dense)               (None, 50)                39250

 dense_1 (Dense)             (None, 100)               5100

 dense_2 (Dense)             (None, 25)                2525

 dense_3 (Dense)             (None, 50)                1300

 dense_4 (Dense)             (None, 5)                 255

 dense_5 (Dense)             (None, 10)                60

=================================================================
Total params: 48,490
Trainable params: 48,490
Non-trainable params: 0
_________________________________________________________________
None
2022-08-12 17:47:22.492966: W tensorflow/core/platform/profile_utils/cpu_utils.cc:128] Failed to get CPU frequency: 0 Hz
Epoch 1/10
 1/79 [..............................] - ETA: 16s - loss: 2
…
