Model: "sequential"

learning_rate = .035

_________________________________________________________________
 Layer (type)                Output Shape              Param #
=================================================================
 flatten (Flatten)           (None, 784)               0

 dense (Dense)               (None, 25)                19625

 dense_1 (Dense)             (None, 100)               2600

 dense_2 (Dense)             (None, 12)                1212

 dense_3 (Dense)             (None, 50)                650

 dense_4 (Dense)             (None, 2)                 102

 dense_5 (Dense)             (None, 10)                30

=================================================================
Total params: 24,219
Trainable params: 24,219
Non-trainable params: 0
_________________________________________________________________
None
2022-08-12 18:00:16.368267: W tensorflow/core/platform/profile_utils/cpu_utils.cc:128] Failed to get CPU frequency: 0 Hz
Epoch 1/10
 1/79 [..............................] - ETA: 14s - loss: 2
…
