learning_rate = .015

Model: "sequential"
_________________________________________________________________
 Layer (type)                Output Shape              Param #
=================================================================
 flatten (Flatten)           (None, 784)               0

 dense (Dense)               (None, 12)                9420

 dense_1 (Dense)             (None, 100)               1300

 dense_2 (Dense)             (None, 6)                 606

 dense_3 (Dense)             (None, 50)                350

 dense_4 (Dense)             (None, 1)                 51

 dense_5 (Dense)             (None, 10)                20

=================================================================
Total params: 11,747
Trainable params: 11,747
Non-trainable params: 0
_________________________________________________________________
None
2022-08-12 18:07:49.259327: W tensorflow/core/platform/profile_utils/cpu_utils.cc:128] Failed to get CPU frequency: 0 Hz
Epoch 1/10
 1/79 [..............................] - ETA: 14s - loss: 2
…
